yolo-fastestv2.onnx (onnx, 978913 bytes, 153 tensors)

1000 f4 [72]
0	0x3dd3f4af	0.10349404
1	0x3cbb1e3a	0.022841562
2	0x3e0f5763	0.13998179
3	0xbd4ddd28	-0.05025974
4	0xbd483157	-0.04887518
5	0x3dbad5a0	0.09122777
6	0x3e902bc1	0.28158382
7	0x3d2a521d	0.041582216
8	0x3e1b7ea0	0.15185022
9	0xbd623c37	-0.055233207
10	0xbd45685a	-0.04819522
11	0x3e3fa6e0	0.18716002
12	0x3e8fb58b	0.28068194
13	0x3e81ab58	0.25326037
14	0x3e403260	0.18769217
15	0x3e19e9f3	0.15030651
16	0x3e380e16	0.17974123
17	0x3dc259eb	0.09489807
18	0xbcb1b020	-0.021690428
19	0xbe056a2f	-0.13028787
20	0xbafa5ca4	-0.0019101095
21	0x3dee67d5	0.11640898
22	0x3e220610	0.15822625
23	0x3e18e2a6	0.1493021
24	0x3d8ebcdc	0.06969616
25	0x3d3505c4	0.04419495
26	0x3d48063e	0.048834078
27	0x3dbb90fd	0.09158514
28	0xbdc9f254	-0.098606735
29	0x3deb7b72	0.11498155
30	0x3e3942a8	0.18091834
31	0x3d997c3d	0.074944
32	0x3d563784	0.052299038
33	0x3d81dd72	0.063410655
34	0x3e16ed6a	0.14739004
35	0x3e04efd7	0.12982117
36	0x3c288d22	0.010287555
37	0x3ce1ee58	0.027579471
38	0xbe200561	-0.15627052
39	0x3e53382d	0.20626898
40	0x3e177828	0.1479193
41	0x3db03c91	0.08605302
42	0x3ea5bb17	0.323693
43	0x3e92b4f4	0.2865368
44	0x3e1fdc92	0.15611485
45	0x3e1e8134	0.15478975
46	0x3da15596	0.07877652
47	0x3ea09eae	0.31371063
48	0x3e5d7c64	0.21629483
49	0x3e54711f	0.20746277
50	0x3dd9ea34	0.10640374
51	0x3c9a60c0	0.018844962
52	0x3e1917b6	0.14950451
53	0x3e3857c0	0.18002224
54	0x3e13c769	0.14431538
55	0x3ba7d900	0.005122304
56	0x3d69450e	0.05695062
57	0xbd871b3e	-0.06596993
58	0x3d586f03	0.052840244
59	0x3e2c03aa	0.16798273
60	0x3e0c2e6f	0.13689588
61	0x3e25e3c2	0.16200164
62	0x3e16df44	0.14733607
63	0x3c8ce07d	0.017196888
64	0xbd94ac9e	-0.072594866
65	0x3d849f4f	0.06475698
66	0x3e37b7aa	0.17941156
67	0x3db6da9a	0.08928414
68	0x3e0e05f5	0.1386946
69	0x3e2712b8	0.16315734
70	0x3e92038d	0.28518334
71	0x3dd1ac4c	0.10237941

1002 f4 [72, 72, 1, 1]
0	0x3dd4beac	0.1038793
1	0xbe5dede0	-0.21672773
2	0x3e6c660b	0.23085801
3	0xbd3531a6	-0.0442368
4	0xbe81728f	-0.25282714
5	0xbd3e7fb4	-0.046508506
6	0xbe11d743	-0.14242272
7	0x3e8ece32	0.2789169
8	0xbec70867	-0.38873598
9	0xbd8497ea	-0.06474288
10	0xbde8fdd9	-0.113765426
11	0x3d0846f6	0.0332708
12	0xbeebdef5	-0.4606854
13	0x3e63c997	0.22244869
14	0x3de353c2	0.1109996
15	0xbed9c21c	-0.42530906
16	0xbdfba344	-0.12287
17	0xbe17de27	-0.14830838
18	0xbe8544af	-0.26028964
19	0x3da9747f	0.08274173
20	0x3e5cc4a3	0.21559386
21	0xbd4640f9	-0.048401807
22	0x3e874597	0.2642028
23	0x3ddf53fe	0.10904692
24	0xbbeac476	-0.0071645333
25	0xbe57997c	-0.21054643
26	0xbe36a2f5	-0.178356
27	0xbea892d0	-0.3292451
28	0xbed2c050	-0.41162348
29	0xbf208c7b	-0.62714356
30	0xbdd4f0aa	-0.103974655
31	0xbee8f183	-0.4549676
32	0x3d23b57d	0.039968003
33	0x3e0912c2	0.13386062
34	0xbca33309	-0.019921796
35	0x3e876b64	0.2644912
36	0x3e903111	0.28162435
37	0xbcc87f47	-0.024474753
38	0xbe9eb9de	-0.3100118
39	0x3dd324fa	0.10309787
40	0xbec477c8	-0.38372636
41	0xbe976cc6	-0.29575175
42	0x3ec44861	0.3833647
43	0x3e3699c1	0.1783209
44	0xbeae602d	-0.3405775
45	0x3c8012c0	0.01563394
46	0xbebd9f28	-0.3703549
47	0x3c94f931	0.01818523
48	0x3d1fca68	0.03901139
49	0xbe097d8a	-0.13426796
50	0x3e990209	0.29884365
51	0xbe9d7b34	-0.3075806
52	0x3e51e5e1	0.20497848
53	0x3eb2ff27	0.3496029
54	0x3ddbbc0c	0.107292265
55	0xbda2132e	-0.079138145
56	0xbe1bf341	-0.15229513
57	0x3e4e9104	0.20172507
58	0xbdafd0c4	-0.08584741
59	0x3e783deb	0.2424237
60	0xbe1df681	-0.15426065
61	0x3d815469	0.06314928
62	0xbf0aa6b3	-0.5416061
63	0x3e57a75a	0.21059933
64	0xbe34941c	-0.17634624
65	0xbe741092	-0.23834446
66	0x3b7be7f5	0.0038437818
67	0xbe87828b	-0.26466784
68	0x3e303b99	0.17210235
69	0x3d8300ca	0.06396635
70	0xbe6dd868	-0.23227084
71	0x3f0d745c	0.55255675
72	0xbe318b49	-0.1733829
73	0x3f955a91	1.1668264
74	0x3f87255f	1.055828
75	0xbe4f9df5	-0.202751
76	0xbe478a45	-0.1948634
77	0xbe765747	-0.24056731
78	0xbdfbf7e3	-0.1230314
79	0x3e27f610	0.16402459
80	0xbefc9ef2	-0.49340016
81	0x3fde9408	1.7388926
82	0x3f8685bb	1.0509561
83	0xbf0394f5	-0.51399165
84	0xbece9f4d	-0.40355912
85	0xbe457be7	-0.19285546
86	0x3cabe994	0.020985402
87	0x3f001758	0.5003562
88	0xbf976d7b	-1.1830286
89	0xbeb213e1	-0.3478079
90	0x3e5e1a1d	0.21689649
91	0xbe9f8908	-0.31159234
92	0xbd3e0be8	-0.046398073
93	0xbde185bf	-0.11011838
94	0x3e684516	0.22682604
95	0xbe847fd9	-0.2587879
96	0x3d3e419c	0.04644929
97	0xbf1e1b5c	-0.617605
98	0x3f99d3c1	1.2017747
99	0xbecda619	-0.40165785
100	0xbebbce4e	-0.36680835
101	0xbfb62835	-1.423102
102	0xbf8c8c11	-1.0980245
103	0xbf031ac9	-0.51212746
104	0xbebba76d	-0.36651173
105	0xbe13c84c	-0.14431876
106	0x3f2afefe	0.6679534
107	0xbf73c084	-0.9521563
108	0xbf62689b	-0.88440865
109	0xbe961065	-0.29309383
110	0x3c254770	0.010087833
111	0x3e275872	0.16342333
112	0xbf856ddd	-1.0424153
113	0xbefbfabe	-0.4921474
114	0x3f1e2d34	0.61787724
115	0xbc315db7	-0.010825566
116	0x3f331718	0.69957113
117	0xbedf8964	-0.43659508
118	0xbdb613e7	-0.08890515
119	0x3eefa8b0	0.46808386
120	0x3e94ccd7	0.2906253
121	0x3ebe1715	0.37126985
122	0x3f933c5f	1.1502799
123	0x3f4c27aa	0.7974802
124	0x3c74aa08	0.014933117
125	0xbefd4086	-0.4946329
126	0xbe98d05f	-0.29846475
127	0x3fe37250	1.776926
128	0xbf839725	-1.0280501
129	0x3f99e886	1.2024086
130	0x3e2c7689	0.16842093
131	0xbf2da0de	-0.6782359
132	0x3ff7ce75	1.9359881
133	0x3f12d757	0.5735983
134	0xbdda51a8	-0.10660106
135	0xbf940fd0	-1.1567326
136	0xbe8a0784	-0.2695886
137	0x3c5b9b03	0.013403657
138	0x3ff5e874	1.9211564
139	0xbfd3ec9d	-1.6556584
140	0x3d26ac07	0.0406914
141	0x3e980b8e	0.29696316
142	0x3e50144d	0.20320244
143	0x3f5afb8a	0.8554007
144	0x3f453d19	0.7704635
145	0xbe9e645a	-0.30935937
146	0xbef58272	-0.47951084
147	0x3f0be3d3	0.5464451
148	0xbdd842d7	-0.10559624
149	0x3d2eaef6	0.042647325
150	0xbf21d1bc	-0.63210654
151	0x3e2ffd5c	0.17186493
152	0xbd8a0810	-0.06739819
153	0x3e714b72	0.23563936
154	0xbe026cbc	-0.12736791
155	0x3e421a06	0.1895524
156	0xbe333cc7	-0.17503653
157	0xbfb8b41f	-1.4429969
158	0x3ddd99bc	0.10820338
159	0x3f770977	0.9649882
160	0xbf33028b	-0.69925755
161	0xbee4da89	-0.4469798
162	0x3eef1f67	0.46703646
163	0x3d779492	0.060444422
164	0xbf380834	-0.71887517
165	0xbd218d36	-0.03944131
166	0x3e04e6b5	0.12978633
167	0xbed459bb	-0.4147471
168	0x3eac4170	0.33643675
169	0x3fac3b99	1.3455688
170	0xbfa20c8d	-1.266008
171	0xbf0bc000	-0.54589844
172	0xbdf7ae4e	-0.12093793
173	0x3f259c88	0.6469197
174	0xbd825b73	-0.06365099
175	0x3eaa9c9a	0.33322603
176	0x3dd5cfa2	0.104399934
177	0x3f3bedbf	0.73409647
178	0x3fadbbd7	1.3572949
179	0xbeb8ede8	-0.36119008
180	0xbf3ff23a	-0.74978983
181	0x3cf1afec	0.029502831
182	0xbe1734c3	-0.14766221
183	0x3f2cf35d	0.6755884
184	0xbf2416f8	-0.6409755
185	0xbf1fcf6c	-0.62425876
186	0x3f10ea2e	0.5660733
187	0x3f211d00	0.62934875
188	0x3f41aaef	0.7565145
189	0x3f4ff2ab	0.81229657
190	0x3f33472e	0.70030487
191	0xbeb622b8	-0.35573363
192	0xbe221bf9	-0.15830983
193	0x3f5173f5	0.8181756
194	0x3d8b6aba	0.06807466
195	0x3fb5c2ae	1.4200037
196	0xbdac543f	-0.08414506
197	0x3d2b2060	0.041778922
198	0x3edbb484	0.4291116
199	0xbe9b7730	-0.3036437
200	0xbf2e313b	-0.6804387
201	0x3e6a1968	0.22861254
202	0x3e158cce	0.14604494
203	0xbee141de	-0.43995565
204	0xbf2543e9	-0.6455675
205	0x3e0bf4af	0.13667558
206	0x3ec29b7f	0.3800926
207	0xbf36a1d8	-0.71340704
208	0x3f05b276	0.52225435
209	0xbb325f55	-0.0027217467
210	0x3f15afab	0.58471173
211	0xbe1ca96b	-0.15299003
212	0x3f1ad7d5	0.60485584
213	0xbfc8b1f1	-1.5679303
214	0x3f0bfdb0	0.5468397
215	0xbe6251ce	-0.22101519
216	0x3dc6af7e	0.09701441
217	0xbf8aa440	-1.0831375
218	0x3d5c1237	0.05372831
219	0xbf2e779a	-0.6815125
220	0xbdc9dc95	-0.09856526
221	0xbebdf300	-0.37099457
222	0xbed540d9	-0.41651037
223	0x3ec1fc27	0.3788769
224	0x3f15ddef	0.5854177
225	0x3f904eeb	1.1274084
226	0x3f734dcf	0.950406
227	0xbeafe837	-0.34356853
228	0xbea5d2e0	-0.32387447
229	0xbfc750ca	-1.557153
230	0x3dbd07c5	0.092299975
231	0x3f9ff34e	1.2496126
232	0x3f3af8aa	0.7303568
233	0xbebffc6a	-0.37497264
234	0x3f669b53	0.90080756
235	0xbf09140e	-0.53546226
236	0xbf2bcefc	-0.6711271
237	0x3ae15a56	0.001719306
238	0x3d33c6b1	0.04389066
239	0xbf4e5102	-0.8059236
240	0xbd3d9a71	-0.046289865
241	0xbe2e6428	-0.17030394
242	0x3e0e3c4c	0.13890189
243	0xbf018119	-0.5058761
244	0x3d42babf	0.047541376
245	0xbe85f313	-0.26162013
246	0x3f801ff8	1.0009756
247	0x3df2b121	0.11850191
248	0x3f0a0755	0.5391744
249	0x3f6b2365	0.9185088
250	0x3f48dc27	0.78460926
251	0xbecaea2d	-0.39631787
252	0x3e6e86bc	0.23293585
253	0xbc3d2300	-0.011543989
254	0xbf2bbea2	-0.6708776
255	0xbcb706ac	-0.022342049

1003 f4 [72]
0	0x3f965f4a	1.174783
1	0xbe27464f	-0.16335414
2	0x3b239880	0.0024962723
3	0x3c95f0c0	0.018303275
4	0xbed7feba	-0.42186528
5	0xbeb800a6	-0.35937995
6	0xbe15f6f8	-0.14644992
7	0x3f006591	0.5015498
8	0xbd9aeac0	-0.07564306
9	0x3f06b797	0.52623886
10	0xbf11c30e	-0.56938255
11	0x3e33756a	0.17525259
12	0x3f843989	1.0330058
13	0x3f9356cc	1.1510863
14	0x3e55ca43	0.20877938
15	0xbe040413	-0.12892179
16	0x3e2928a0	0.16519403
17	0x3c748f40	0.014926732
18	0x3d806424	0.062691
19	0x3eecfd1b	0.46286854
20	0xbdd8e073	-0.10589685
21	0xbea17adb	-0.31539044
22	0x3ea28edc	0.31749618
23	0x3ea37f3a	0.31933004
24	0xbd831efe	-0.06402396
25	0xbe8fb709	-0.28069332
26	0x3e40b3fd	0.1881866
27	0xbdd06ee1	-0.101773985
28	0x3eca881f	0.39556977
29	0xbe55f394	-0.20893699
30	0xbf1ca72d	-0.6119259
31	0xbea84a63	-0.32869253
32	0xbef1ee78	-0.4725225
33	0x3f14e06a	0.5815493
34	0x3e675e6f	0.22594617
35	0x3ea507e0	0.3223257
36	0x3d1c2ecb	0.038130563
37	0x3d93e1a2	0.072207704
38	0x3f234b16	0.6378645
39	0x3d88c5a8	0.06678325
40	0xbe524f54	-0.20538074
41	0xbf30c975	-0.690574
42	0x3f51f6e3	0.82017344
43	0xbd28f318	-0.041247457
44	0xbe8253af	-0.2545447
45	0x3ea0a61e	0.31376737
46	0xbf35ca04	-0.71011376
47	0x3e9df71e	0.30852598
48	0xbdc1c54e	-0.09461461
49	0x3f021600	0.5081482
50	0xbe970910	-0.29499102
51	0xbe4b772c	-0.19869679
52	0x3f045556	0.5169271
53	0x3f323482	0.6961137
54	0x3ef0ad0a	0.47007018
55	0xbdc0eab5	-0.09419767
56	0xbd80d1b0	-0.06289995
57	0x3d3f117f	0.046647545
58	0xbf396748	-0.7242322
59	0xbef99aa6	-0.487508
60	0xbe9ad388	-0.3023951
61	0xbe93bf7e	-0.28857034
62	0x3f3405b6	0.70321214
63	0xbe7aa9aa	-0.24478784
64	0x3e2505b8	0.16115463
65	0xbebbccd4	-0.3667971
66	0xc00235b0	-2.0345268
67	0x3f124803	0.5714113
68	0xbddae4b4	-0.10688153
69	0xbf06334d	-0.5242203
70	0x3f1043a0	0.5635319
71	0x3ea756f2	0.32683522

1005 f4 [72, 1, 5, 5]
0	0xbcc9c4a6	-0.024629902
1	0x3d041a61	0.03225172
2	0x3ec6afdc	0.38806045
3	0xbd97a50c	-0.07404527
4	0xbc6f867a	-0.014619464
5	0x3d5c5ea5	0.053801198
6	0xbe00d5c6	-0.12581548
7	0x3e97616d	0.29566517
8	0x3d981f5b	0.074278556
9	0x3d497d5d	0.04919182
10	0x3d95f1fb	0.07321545
11	0xbd98e89a	-0.0746624
12	0x3f9e1dff	1.2352904
13	0xbe918acc	-0.28426206
14	0x3dad68bb	0.084672414
15	0x3d235169	0.03987256
16	0xbdc5f617	-0.096660785
17	0x3eb229cb	0.3479751
18	0xbda9812a	-0.08276589
19	0x3d03e00d	0.032196093
20	0xbca6f3f0	-0.02037999
21	0xbd1428fe	-0.036171906
22	0x3e52b760	0.20577765
23	0x3cf6f833	0.030147647
24	0xbd197a50	-0.037470162
25	0x3e107c65	0.14109953
26	0x3e9fa33e	0.3117923
27	0xbe97926a	-0.29603893
28	0x3ed9b13f	0.4251804
29	0x3e33f3cf	0.17573474
30	0x3ca1b5ed	0.01974007
31	0x3cfa520b	0.0305567
32	0xbecf3655	-0.4047114
33	0x3e8d9237	0.27650616
34	0xbd8997e9	-0.06718428
35	0xbd3918d9	-0.045189712
36	0x3e89a19e	0.26881117
37	0xbf845356	-1.0337932
38	0xbcbb74ea	-0.022882897
39	0x3e016871	0.12637497
40	0x3d8f32b4	0.06992093
41	0x3e43508d	0.19073696
42	0xbe278358	-0.16358697
43	0x3ef0fec9	0.47069386
44	0xbdbbf32c	-0.09177241
45	0x3d837ef2	0.06420697
46	0x3e64bafe	0.22336957
47	0xbd2514ef	-0.040303167
48	0x3e4e12ad	0.20124312
49	0x3e6f1088	0.2334615
50	0x3dad0db7	0.084498815
51	0xbd44bca5	-0.048031468
52	0xbdb6eee0	-0.089322805
53	0x3d094773	0.033515405
54	0xbdc9a186	-0.09845261
55	0xbd73d67b	-0.059530716
56	0x3eb7f6f4	0.35930598
57	0x3e64ca2a	0.22342744
58	0x3f1f4781	0.6221848
59	0x3d02faf6	0.031977616
60	0xbe043fa9	-0.1291491
61	0x3f0149b7	0.50503105
62	0x3e4849e9	0.19559444
63	0x3f6d6dbe	0.9274558
64	0x3db69481	0.089150436
65	0xbe0c5651	-0.13704802
66	0x3edf538f	0.43618438
67	0x3ea64a1b	0.32478413
68	0x3f389d98	0.7211547
69	0x3d423d80	0.047421932
70	0x3e260436	0.16212544
71	0xbdd957c7	-0.10612445
72	0xbd4420fd	-0.047883023
73	0xbde5f3f5	-0.11228172
74	0xbd323a18	-0.043512434
75	0xbe222699	-0.15835036
76	0x3e8432bf	0.25819966
77	0x3df5ca68	0.120014966
78	0x3c70ded9	0.0147015685
79	0xbe205e27	-0.15660916
80	0x3e025a6e	0.12729809
81	0x3de7bee1	0.11315704
82	0x3dc4ef76	0.09615986
83	0x3e09c169	0.13452686
84	0x3dc4eb47	0.09615188
85	0x3e2cd9c4	0.16879946
86	0xbd194629	-0.037420426
87	0x3e5192b9	0.20466127
88	0xbb95c027	-0.0045700255
89	0x3d6d7e72	0.057981916
90	0x3d9a92eb	0.07547554
91	0x3e5dcacf	0.21659397
92	0xba509439	-0.0007956657
93	0xbc2a7d40	-0.0104058385
94	0xbdd33979	-0.103136964
95	0x3d316c24	0.04331602
96	0xbd0bebd6	-0.034160458
97	0xbb892669	-0.004185487
98	0x3caaa9d8	0.020832941
99	0xbdad54f5	-0.0846347
100	0xbdace15e	-0.08441423
101	0xbcd39e3b	-0.025832286
102	0x3d30f460	0.043201804
103	0xbd0b5796	-0.034019075
104	0xbd29ce15	-0.0414563
105	0x3e216f2d	0.15765066
106	0x3e1a198c	0.15048808
107	0x3ea0c58c	0.31400716
108	0x3dd53a95	0.10411564
109	0x3db33e40	0.087521076
110	0x3d077bfe	0.033077233
111	0x3e73bab3	0.23801689
112	0x3ed2cf7c	0.41173923
113	0x3e83cd78	0.25742698
114	0x3e04e190	0.1297667
115	0xbd3c6ad9	-0.046000335
116	0xbc7eb959	-0.01554712
117	0xbd22316a	-0.039597906
118	0xbd3cc858	-0.0460895
119	0xbdd98ab7	-0.10622161
120	0x3c73c6e1	0.014878959
121	0xbdd76411	-0.10517133
122	0xbdc24880	-0.094864845
123	0x3ce5cc41	0.028051497
124	0xbc3b095a	-0.011415804
125	0x3d7379cd	0.05944233
126	0xbd88acb3	-0.06673565
127	0xbce81f79	-0.02833532
128	0xbdcb77ef	-0.09934985
129	0x3de65764	0.11247137
130	0xbca6a2da	-0.020341326
131	0xbd1b8c62	-0.037975676
132	0xbe869c07	-0.26290914
133	0x3e0ba6cd	0.13637848
134	0xbcee3f47	-0.029082907
135	0xbd2bdfe9	-0.041961584
136	0xbe43f6a6	-0.19137058
137	0xbea5e4e9	-0.32401207
138	0xbe192c95	-0.14958413
139	0xbd194d50	-0.037427247
140	0xbda9a570	-0.08283508
141	0xbe202a5a	-0.15641156
142	0xbe73056f	-0.23732542
143	0xbdbeca0b	-0.093158804
144	0x3b58df63	0.0033092133
145	0xbd92c6c9	-0.071668215
146	0xbb4e2843	-0.0031457103
147	0xbd3d7f3a	-0.04626391
148	0x3ce86310	0.02836755
149	0x3cc971a3	0.024590319
150	0x3c21ee2b	0.009883444
151	0xbb97480e	-0.004616744
152	0xbc39ba56	-0.01133593
153	0x3cebe0e1	0.028793754
154	0xbc2a39c4	-0.010389749
155	0xbca7ef3d	-0.02049982
156	0xbce36999	-0.027760314
157	0x3dec7df3	0.115474604
158	0xbd4fbde9	-0.05071822
159	0x3c6008bf	0.01367396
160	0x3c9679cf	0.01836863
161	0x3e267e1f	0.16259049
162	0x3ebf916a	0.3741563
163	0x3f01fa76	0.507728
164	0xbb583b44	-0.003299431
165	0x3cfd26c2	0.03090227
166	0x3da4c3c3	0.08045151
167	0x3e82b0d5	0.25525537
168	0x3e39284c	0.18081778
169	0x3d49b965	0.04924907
170	0xbad13bb8	-0.0015963232
171	0x3d3e3e48	0.046446115
172	0x3c79964b	0.015233587
173	0x3cf3332e	0.02968749
174	0xbc2b1b8b	-0.0104435785
175	0x3cbbb87a	0.022915114
176	0xbe30f957	-0.17282616
177	0x3e169f53	0.14709215
178	0xbdfd786d	-0.12376485
179	0x3df2bb71	0.11852158
180	0xbd284079	-0.04107711
181	0x3e139415	0.14411958
182	0x3e8459e7	0.2584984
183	0x3e42ad9c	0.19011539
184	0xbd051f62	-0.032500632
185	0x3e51fc1b	0.20506327
186	0x3e14ea9b	0.1454262
187	0x3ea717a6	0.3263523
188	0x3e927756	0.2860667
189	0x3e1da797	0.15395962
190	0x3d4fecce	0.050762944
191	0x3e4459cb	0.19174878
192	0x3e2ab148	0.1666919
193	0x3d7a91da	0.06117425
194	0x3d416643	0.047216665
195	0xbcac3a83	-0.021023994
196	0xbc3dc727	-0.011583126
197	0x3ce0f35b	0.02745979
198	0x3e89b362	0.2689467
199	0xbcfc7282	-0.03081632
200	0x3d59eae1	0.053202514
201	0x3cb28093	0.021789825
202	0xbc4e0c3c	-0.012576159
203	0x3d70f55c	0.058827743
204	0xba9c86a6	-0.0011941984
205	0xbd927e49	-0.07152993
206	0x3e7e9e74	0.24865133
207	0x3cdaa0b5	0.02668796
208	0xbd00d8e4	-0.031456843
209	0x3cc5e8b6	0.024158817
210	0xbdd44285	-0.1036425
211	0x3ee0729d	0.43837443
212	0x3eff3ede	0.4985265
213	0xbd8a2409	-0.067451544
214	0x3c0d7488	0.00863374
215	0xbd7d8fa7	-0.061904576
216	0x3e6dc5d3	0.23219995
217	0x3e11a0ba	0.14221469
218	0xbdd3ed27	-0.103479676
219	0x3d4024fa	0.046910264
220	0xbab3b4d6	-0.001371051
221	0xbc08fa0c	-0.008360397
222	0x3d0e91ea	0.034807123
223	0x3da7e564	0.0819805
224	0x3ce4f225	0.027947495
225	0x3df0216c	0.11725125
226	0xbee695f8	-0.45036292
227	0x3ece5bc3	0.40304384
228	0xbe99d44a	-0.30044776
229	0x3d807a89	0.06273372
230	0x3df8a5ae	0.12140976
231	0xbf1518f6	-0.5824121
232	0x3e8c2e38	0.27379012
233	0x3dd9ad0f	0.106287114
234	0xbd1afca0	-0.03783858
235	0xbd507462	-0.05089224
236	0xbf117bde	-0.5682963
237	0x3ddb6191	0.10711969
238	0x3e603fad	0.2189929
239	0xbd361b8d	-0.04445987
240	0x3e5c8262	0.21534112
241	0xbf1da31f	-0.6157703
242	0x3eb34dce	0.35020298
243	0x3e8a4c75	0.27011457
244	0xbe30a84a	-0.17251697
245	0xbe381100	-0.17975235
246	0xbe4a2d7b	-0.19743912
247	0x3db7955f	0.08964037
248	0xbe087b13	-0.13328199
249	0x3e0753c4	0.13215548
250	0xbd32b5ba	-0.04363034
251	0x3ae9a913	0.0017826877
252	0xbdf7bbdb	-0.120963775
253	0x3df56905	0.119829215
254	0x3cd29b55	0.025708834
255	0x3cee513b	0.029091468

1006 f4 [72]
0	0xbe81c177	-0.25342914
1	0x3d1968d0	0.037453473
2	0xbf5fda7e	-0.8744277
3	0xbd11a369	-0.03555623
4	0xbe7632a2	-0.24042752
5	0x3e9aa60a	0.30204803
6	0x3d6ab082	0.057297237
7	0xbea8d52a	-0.3297513
8	0xbbaaf280	-0.0052168965
9	0x3d93bcbc	0.072137326
10	0x3d180c33	0.03712101
11	0x3ddd877e	0.10816859
12	0x3e9c1e1c	0.30491722
13	0xbe88c6b6	-0.26714104
14	0x3d9f62c4	0.0778251
15	0x3df8481e	0.1212313
16	0xbeb58922	-0.35456187
17	0x3e88e260	0.2673521
18	0xbe985b45	-0.29757133
19	0xbd7f93c4	-0.06239678
20	0x3d18d5fa	0.03731344
21	0x3e3454b3	0.17610435
22	0xbe16bd66	-0.14720687
23	0x3b563ca0	0.0032689944
24	0x3e98ebca	0.29867393
25	0x3e1a6291	0.15076663
26	0xbd91f866	-0.07127456
27	0x3d80acd5	0.06282965
28	0xbc133390	-0.008984461
29	0xbd2b1c4e	-0.04177504
30	0x3eba83a7	0.36428568
31	0xbdca04f7	-0.09864228
32	0xbd8cdde9	-0.068782635
33	0xbd27d696	-0.04097613
34	0x3e66a19f	0.22522591
35	0x3eab8238	0.33497787
36	0x3e65345a	0.22383252
37	0x3e435ab9	0.19077577
38	0x3e58de8d	0.21178646
39	0xbda5573c	-0.08073279
40	0x3ea21787	0.31658575
41	0x3cbcd554	0.023050942
42	0xbec423ad	-0.38308468
43	0x3e97df40	0.29662514
44	0x3e0efbeb	0.13963287
45	0xbe0b12f6	-0.13581452
46	0x3e3660ce	0.17810366
47	0x3e904099	0.28174284
48	0xbe655f9c	-0.22399753
49	0x3d9d5b92	0.07683481
50	0x3ec189e8	0.37800527
51	0x3e1f7912	0.15573528
52	0x3e061dc1	0.13097288
53	0xbe1d0441	-0.15333654
54	0x3e3a890e	0.18216345
55	0xbd329e35	-0.04360791
56	0x3eaee3a1	0.34158042
57	0xbe5a9e36	-0.21349415
58	0x3e329ea4	0.17443329
59	0xbd8438f8	-0.064561784
60	0x3e960d56	0.2930705
61	0x3e9f6812	0.31134087
62	0xbde71c36	-0.11284678
63	0xbda2e62a	-0.079540566
64	0x3ea1625a	0.3152035
65	0xbd46d375	-0.048541505
66	0x3c1dd200	0.009632587
67	0xbe5bc306	-0.21461114
68	0x3d9afe79	0.07568068
69	0x3ee4b149	0.44666508
70	0x3ebc0dd4	0.367293
71	0xbedb85d0	-0.42875528

1008 f4 [72, 72, 1, 1]
0	0xbd252069	-0.04031411
1	0xbe074c46	-0.1321269
2	0xbd37e61d	-0.044897188
3	0x3d25574d	0.04036646
4	0xbd4665a2	-0.04843677
5	0xb6fc1876	-7.513033e-06
6	0xbc77b413	-0.015118617
7	0xbe1c8992	-0.15286854
8	0xbd7c7ddc	-0.061643466
9	0xbdb85d82	-0.0900221
10	0x3d59691d	0.05307876
11	0x3d95d7c6	0.07316546
12	0x3d83d698	0.06437415
13	0x3cadc520	0.02121216
14	0x3d64299c	0.055703744
15	0xbdbd61e0	-0.09247184
16	0xbde4bced	-0.11168847
17	0xbd822388	-0.06354433
18	0x3c151292	0.009098666
19	0xbdba5c29	-0.090996094
20	0xbce26d70	-0.027640074
21	0x3c005bae	0.007834358
22	0x3c5970e0	0.01327154
23	0xbd904e9d	-0.07046244
24	0xbd5273b2	-0.051379867
25	0xbd41eb25	-0.047343392
26	0x3c99ce61	0.018775167
27	0xb8a543c5	-7.880436e-05
28	0x3d7b6b5b	0.06138168
29	0x3d47a866	0.04874458
30	0xbc608bc2	-0.013705196
31	0x3cedfdda	0.02905171
32	0xbe23c1b4	-0.1599186
33	0xbea6e64f	-0.32597587
34	0xbd1511f3	-0.03639407
35	0xbc8834f7	-0.016626818
36	0x3d8cc125	0.06872777
37	0xbe9e4bae	-0.30917114
38	0xbc83a5b8	-0.016070232
39	0x3dda281f	0.10652184
40	0x3db44345	0.08801893
41	0x3df0043d	0.117195584
42	0x3e33affa	0.17547598
43	0xbf07f649	-0.53110176
44	0x3da0ea73	0.07857218
45	0xbd19645d	-0.03744923
46	0xbd68003d	-0.056640852
47	0xbd7d26da	-0.06180463
48	0xbd65a006	-0.056060813
49	0xbde764f6	-0.11298554
50	0xbe320cb3	-0.17387657
51	0x3d7d8868	0.061897665
52	0x394276bd	0.00018545515
53	0xbd9cddd2	-0.07659496
54	0x3b5ad992	0.0033393842
55	0x3cb53eaf	0.022124616
56	0x3d91b3cb	0.07114371
57	0xbd0d50dd	-0.034500945
58	0x3dcfe056	0.101502106
59	0xbd1ede85	-0.03878643
60	0x3cb64e8b	0.02225425
61	0xbe0f103f	-0.13971041
62	0xbe05a0e7	-0.1304966
63	0x3d3154ca	0.04329375
64	0xbe95e021	-0.2927256
65	0xbcdeb01f	-0.02718359
66	0xbdaa866f	-0.083264224
67	0xbf66e02f	-0.90185827
68	0xbe054405	-0.13014229
69	0xbce6d9a3	-0.02817995
70	0x3c5289df	0.012850254
71	0x3d89d6ba	0.06730409
72	0xbe29e5f4	-0.16591626
73	0x3de1586c	0.11003193
74	0x3dec6144	0.115419894
75	0xbe41a5ba	-0.18910876
76	0x3d0f156a	0.03493253
77	0xbe0c4c48	-0.13700974
78	0xbe08d350	-0.1336186
79	0x3d32db1b	0.043665987
80	0xbf24557e	-0.6419295
81	0xbdcd2e1f	-0.100185625
82	0x3d821830	0.0635227
83	0xbe1c91cf	-0.15289997
84	0xbd101dd9	-0.035184715
85	0x3dd8d337	0.10587161
86	0x3d2bddb0	0.041959465
87	0x3f0efde9	0.55856186
88	0x3c52556b	0.012837748
89	0xbcc7b75e	-0.024379428
90	0x3d8a904e	0.06765805
91	0xbd3cb07b	-0.046066742
92	0x3d267410	0.04063803
93	0xbc54a4a9	-0.012978711
94	0xbdcc063e	-0.09962128
95	0xbd9520af	-0.072816245
96	0xbda67a1e	-0.08128761
97	0xbd3bab20	-0.045817494
98	0x3cc51a38	0.024060354
99	0x3d538ca3	0.051647794
100	0xbdcae53d	-0.09907005
101	0x3d3db273	0.04631276
102	0x3e152e13	0.14568357
103	0x3debdd80	0.11516857
104	0xbd84f482	-0.06491949
105	0x3d02f277	0.031969514
106	0x3d2cb2e5	0.042162795
107	0xbe8ee9d1	-0.27912763
108	0x3d13dfc7	0.036102083
109	0xbe3b1520	-0.18269777
110	0x3c30d727	0.010793484
111	0x3e0feafd	0.14054485
112	0xbdeaf4fb	-0.114725076
113	0xbe22ec71	-0.15910508
114	0x3d695df4	0.056974366
115	0xbe2f5c7d	-0.17125125
116	0x3e6053bb	0.2190694
117	0xbdd7a1bf	-0.105288975
118	0x3cfb0ba5	0.030645201
119	0x3c72a9fd	0.014811036
120	0x3e2f294c	0.17105597
121	0x3c300c13	0.010745066
122	0xbd8d8539	-0.06910176
123	0xbc8ec805	-0.017429361
124	0x3e31f840	0.17379856
125	0xbb4fb918	-0.0031696018
126	0xbd461f4b	-0.048369687
127	0xbdffb84a	-0.12486322
128	0xbda5d71a	-0.08097668
129	0xbcedb3a4	-0.029016323
130	0xbd633a01	-0.05547524
131	0x3d37a2ae	0.044832878
132	0x3e368805	0.17825325
133	0x3de2750f	0.110574834
134	0xbddfd047	-0.109283976
135	0xbd3eab23	-0.046549927
136	0x3adeeb21	0.001700733
137	0xbd8af278	-0.067845285
138	0xbb521a63	-0.0032059185
139	0xbc55b670	-0.013043985
140	0x3d4f5bb8	0.05062458
141	0xbe09f289	-0.13471426
142	0x3cb51f9a	0.022109795
143	0xbc87f2fa	-0.016595352
144	0x3d8ade93	0.06780734
145	0xbcdc9b1b	-0.026929429
146	0x3de08065	0.10961989
147	0xbe169ee4	-0.1470905
148	0xbcbff52d	-0.023432339
149	0xbde9d7b4	-0.11418095
150	0xbeb9bc1a	-0.36276323
151	0x3db9e2d7	0.090764694
152	0xbeac837a	-0.3369406
153	0xbcc91dae	-0.024550285
154	0xbca32cef	-0.019918887
155	0x3d0a6f53	0.033797573
156	0x3d4ec47d	0.050480355
157	0xbd659733	-0.056052398
158	0xbacfe6ed	-0.0015861668
159	0xbd1cb552	-0.038258858
160	0xbe0c6905	-0.13711937
161	0x3ad921f1	0.0016565901
162	0xbdc9e420	-0.098579645
163	0x3dc90fa2	0.09817435
164	0x3d05afaa	0.03263823
165	0xbd1366d2	-0.03598673
166	0x3d7bc2af	0.06146496
167	0xbe7c857a	-0.24660292
168	0x3e96f242	0.29481703
169	0xbd91cc91	-0.07119096
170	0x3dddb6e9	0.10825903
171	0xbe053c6c	-0.1301133
172	0xbd9229f6	-0.0713691
173	0x3d348c58	0.044079155
174	0x3d8acbd6	0.0677716
175	0xbd48465d	-0.04889523
176	0x3d2b8cb3	0.041882228
177	0x3c692551	0.014230088
178	0x3b8d7a8e	0.004317588
179	0x3e4b834a	0.19874302
180	0x3e57c6fe	0.21072003
181	0x3d915f43	0.07098248
182	0xbc338524	-0.010957036
183	0xbd19d46c	-0.037556097
184	0xbe2e7d05	-0.17039879
185	0xbdb9962d	-0.09061847
186	0xbd9a490f	-0.07533466
187	0x3ec7e8c1	0.39044765
188	0xbe980f57	-0.29699203
189	0xbdf473db	-0.1193616
190	0xbd004e93	-0.031324934
191	0x3e0e903b	0.13922207
192	0xbd7f192d	-0.06227987
193	0x3d63129f	0.05543768
194	0x3e9f88c6	0.31159037
195	0xbe98ed66	-0.2986862
196	0xbcd9de4a	-0.026595253
197	0x3c183c4a	0.009291718
198	0xbd260de0	-0.040540576
199	0x3dba9bbe	0.09111737
200	0x3df90c12	0.12160505
201	0xbd56e93d	-0.052468527
202	0xbd491aba	-0.049097754
203	0x3e44f65b	0.19234602
204	0x3dd568ee	0.104204044
205	0xbdc3c7a6	-0.09559564
206	0xbc824bb6	-0.015905242
207	0xbbb81c89	-0.005618636
208	0x3c50bb9f	0.012740045
209	0x3dc6635c	0.0968692
210	0x3e472d52	0.19450882
211	0x3e2953be	0.16535851
212	0x3d6b82df	0.057497855
213	0xbe4996dd	-0.19686456
214	0x3d46a216	0.04849442
215	0xbd7938ea	-0.060845293
216	0x3d0f47a0	0.034980416
217	0x3d5c3ebf	0.053770777
218	0x3d8ebaa9	0.06969196
219	0x3d932393	0.071845196
220	0xbdbb53e1	-0.09146858
221	0xbcd2a942	-0.025715474
222	0xbd4b751d	-0.049672235
223	0xbd5ab863	-0.0533985
224	0xbdb2bdc7	-0.087276034
225	0xbb71ee61	-0.0036915767
226	0xbdae3a1b	-0.085071765
227	0x3e875c3b	0.26437554
228	0xbd90d325	-0.070715226
229	0xbe821235	-0.25404516
230	0xbe0c20c0	-0.13684368
231	0xbe1b7bb4	-0.15183908
232	0xbe279390	-0.16364884
233	0x3c8dfbf1	0.01733205
234	0xbead7bb6	-0.33883446
235	0x3d70d9ca	0.05880145
236	0xbd3e3be2	-0.046443827
237	0xbd99969f	-0.07499432
238	0xbf068e5e	-0.52560985
239	0x3df369a4	0.11885384
240	0xbcf657c6	-0.03007115
241	0xbc2a5e2a	-0.010398427
242	0x3d234593	0.039861273
243	0xbc08c4c3	-0.008347693
244	0xbef7cefb	-0.484001
245	0xbda5784c	-0.080795854
246	0x3c796336	0.015221408
247	0x3d5b42ca	0.053530492
248	0x3d1333e3	0.035938155
249	0xbd2afea8	-0.041746765
250	0x3c35b003	0.011089328
251	0x3c47ff87	0.012206919
252	0xbd3973d8	-0.045276493
253	0xbe3654af	-0.17805742
254	0xbd07bc68	-0.033138663
255	0xbe41558e	-0.18880293

1009 f4 [72]
0	0x3f075431	0.5286284
1	0x3e5b5f4e	0.21423075
2	0xbcf1fc7c	-0.02953934
3	0x3e9b8b25	0.30379596
4	0xbec6774c	-0.3876289
5	0x3eda40e4	0.42627633
6	0xbb9e2378	-0.0048260055
7	0xbe5b8419	-0.2143711
8	0x3d4bf336	0.04979249
9	0x3e09f298	0.13471448
10	0xbe78e8bb	-0.2430753
11	0xbac5c700	-0.0015089214
12	0xbee19000	-0.44055176
13	0x3e82b148	0.2552588
14	0xbe4952c4	-0.19660479
15	0xbdece992	-0.115679875
16	0xbe4d1b5f	-0.20029972
17	0x3e990fa5	0.29894748
18	0x3d8aaaf4	0.06770888
19	0x3dc1f678	0.09470838
20	0xbe3ae86c	-0.18252724
21	0x3ebbd43d	0.36685362
22	0xbcd2f9a2	-0.0257538
23	0xbdcea38a	-0.10089786
24	0xbe60a33f	-0.21937273
25	0xbd84ab83	-0.06478026
26	0x3dbcf39f	0.092261545
27	0xbd91ac1c	-0.071129054
28	0x3dbf0fb2	0.093291655
29	0xbe8b98a0	-0.2726488
30	0xbd937898	-0.07200736
31	0xbe44c1ea	-0.19214597
32	0xbe6379b0	-0.22214389
33	0xbe36f886	-0.17868242
34	0xbdd22b04	-0.10262111
35	0x3e9b9298	0.3038528
36	0xbdb9de16	-0.09075563
37	0x3df101f2	0.11767949
38	0x3d28d068	0.041214377
39	0x3e346fe3	0.17620806
40	0xbe8d28f6	-0.27570313
41	0xbe8e1c41	-0.2775593
42	0xbc40c718	-0.011766218
43	0xbe12376f	-0.14278959
44	0x3e28efb3	0.16497688
45	0xbe75a781	-0.23989679
46	0x3d0bcba6	0.03412976
47	0xbde6be3e	-0.112667546
48	0x3d157b4d	0.036494542
49	0xbe8ab0ca	-0.27088004
50	0x3e1e81c7	0.15479194
51	0x3e3a0c56	0.18168768
52	0x3de5a2d5	0.11212698
53	0xbe1e4740	-0.15456867
54	0xbc51e61d	-0.012811211
55	0xbe9400f8	-0.2890699
56	0xbe90a369	-0.28249672
57	0x3dbb27f8	0.09138483
58	0xbe4b5759	-0.19857539
59	0xbd94ad6c	-0.0725964
60	0x3ed181d4	0.40919363
61	0x3d9e7e39	0.07738919
62	0x3dcc04a1	0.099618204
63	0x3de9e17e	0.11419962
64	0x3d83620c	0.06415185
65	0x3e1767bd	0.14785667
66	0x3ebe6cde	0.37192434
67	0x3dd5e74b	0.10444506
68	0xbe1e7462	-0.15474084
69	0x3d7bb549	0.061452184
70	0xbe2be8d0	-0.1678803
71	0x3ec397ca	0.38201743

1011 f4 [72, 1, 5, 5]
0	0x3c2dcc20	0.010607749
1	0x3cb56030	0.022140592
2	0x3d0b29f7	0.033975568
3	0x3c81f334	0.015863039
4	0x3c8446d9	0.016147064
5	0x3b735956	0.0037132106
6	0x3da3105e	0.07962106
7	0x3dc045b5	0.093882956
8	0x3dbd4f58	0.09243649
9	0xbc3accde	-0.011401383
10	0xbca510c7	-0.020149602
11	0x3e7801d1	0.24219443
12	0x3f16810c	0.5879066
13	0x3e5b23ad	0.21400328
14	0x3ad641fb	0.0016346568
15	0x3ca835ac	0.020533405
16	0xbd84c5a2	-0.06483008
17	0xbe83283e	-0.2561664
18	0xbd819ec7	-0.063291125
19	0x3c1b14dd	0.009465423
20	0x3bbfd239	0.005853918
21	0x3c2a5eda	0.010398591
22	0x3db9f510	0.09079945
23	0x3cb90f52	0.022590313
24	0x3c0e51ee	0.008686526
25	0x3c41a509	0.011819133
26	0xbd917d68	-0.071039975
27	0x3d31e423	0.04343046
28	0xbd009e9c	-0.03140126
29	0x3d52c9d4	0.05146201
30	0x3d822a2a	0.063556984
31	0xbdb2d8c7	-0.08732753
32	0x3e4d0c8e	0.2002432
33	0xbe8effdc	-0.2792958
34	0xbccf4b0d	-0.025304342
35	0xb9ba3637	-0.00035517078
36	0x3d96cc32	0.07363166
37	0x3ecc8dd3	0.39951953
38	0xbf0651c0	-0.5246849
39	0xbc20f198	-0.009823225
40	0x3c89f370	0.016839713
41	0xbd948e33	-0.07253685
42	0x3e2ebb4a	0.17063633
43	0xbea099a0	-0.31367207
44	0xbc6f13ed	-0.014592153
45	0x3bb2b73e	0.005453973
46	0xbda55536	-0.08072893
47	0xbc8075fe	-0.015681263
48	0xbc3df2b1	-0.011593507
49	0x3ccf3f45	0.025298724
50	0x3ca9a3bf	0.020707963
51	0x3b1107d7	0.0022129917
52	0x3c37c817	0.011217139
53	0x3c4f340d	0.012646687
54	0x3b8c05af	0.0042731385
55	0x3c2ac37f	0.010422586
56	0x3d17b13d	0.037034262
57	0x3d8a7832	0.06761207
58	0x3d6cc795	0.057807524
59	0x3cca72b0	0.02471289
60	0xbd0bef8d	-0.034164
61	0x3d92f168	0.07174951
62	0x3ec2e108	0.3806231
63	0x3de81212	0.11331572
64	0xbc2e6682	-0.010644557
65	0xbc1ec99b	-0.009691621
66	0xbd12ca39	-0.035837386
67	0xbf22c488	-0.6358113
68	0xbdc74f9d	-0.09731982
69	0xbc02f7e6	-0.007993674
70	0xbc1575ac	-0.009122293
71	0xbaab9cc5	-0.0013092986
72	0x3d9a66f0	0.07539165
73	0xbc4eadfd	-0.012614724
74	0xbc47f79e	-0.012205033
75	0x3bb065f5	0.005383248
76	0xbd352b3e	-0.044230692
77	0xbddfae4d	-0.10921917
78	0xbd77aacd	-0.060465623
79	0x3ac7e3b4	0.0015250356
80	0x3d05ce1d	0.032667268
81	0x3debac32	0.11507453
82	0x3f0986f4	0.5372155
83	0x3e25b90f	0.16183876
84	0xbca91ecd	-0.02064457
85	0xbd4433d4	-0.04790099
86	0x3e4ea683	0.20180707
87	0x3e651576	0.22371468
88	0x3e13aa2a	0.14420381
89	0xbcf0361b	-0.029322674
90	0x3d2066ec	0.039160654
91	0xbdb87ad2	-0.09007801
92	0xbdc3693f	-0.095415585
93	0xbdf60615	-0.12012879
94	0x3a02a4c2	0.0004983657
95	0x3c8b9c4a	0.017042298
96	0x3c3fb447	0.011700696
97	0x39052b3d	0.00012699976
98	0xbc277cd8	-0.010222636
99	0x3b256298	0.0025235768
100	0x3be6ab0e	0.0070394343
101	0xbd2ce721	-0.04221261
102	0x3d330077	0.043701615
103	0x3c1423c2	0.009041728
104	0x3c09fb44	0.008421723
105	0xbcf08ab3	-0.029363012
106	0x3cadf3f4	0.02123449
107	0xbeaecb23	-0.34139356
108	0x3d843ad2	0.064565316
109	0xbbed7b95	-0.007247398
110	0x3d9b323d	0.075779416
111	0xbe6f03f0	-0.23341346
112	0xbf2df1e2	-0.6794721
113	0x3f05b463	0.52228373
114	0x3c98c366	0.01864786
115	0xbcc1e785	-0.023669967
116	0xbcc3edc1	-0.02391708
117	0xbea148fe	-0.31501
118	0x3d2f0101	0.042725567
119	0x3d90fa7a	0.070790246
120	0xbb1c2932	-0.0023828265
121	0xbdb3df42	-0.087828174
122	0x3d11a3e5	0.035556693
123	0x3caf3acf	0.021390347
124	0x3c3282f1	0.010895477
125	0x3cb310ba	0.021858562
126	0xbcb1e81e	-0.021717127
127	0xbdf389d8	-0.11891526
128	0xbd2752f4	-0.040850595
129	0x3c328167	0.01089511
130	0xbcb13219	-0.021630334
131	0xbd2e5103	-0.042557728
132	0x3e8c344d	0.27383652
133	0xbb814b8c	-0.0039457735
134	0xbd1965c7	-0.037450578
135	0xbb899c59	-0.0041995463
136	0x3df85312	0.121252194
137	0x3e881364	0.26577294
138	0x3e550c42	0.20805457
139	0xbb893f01	-0.004188419
140	0x3bb063ab	0.005382975
141	0xbd938cb7	-0.072045736
142	0x3e6d4dfb	0.23174278
143	0x3d7b203d	0.06131004
144	0xbc3f5843	-0.011678758
145	0x3ca2ad5e	0.019858059
146	0x3c058143	0.008148494
147	0xbddd4ad9	-0.10805292
148	0xbce44878	-0.027866587
149	0x3d02627e	0.03183221
150	0xbd28c84a	-0.041206636
151	0xba7e2e81	-0.00096962607
152	0xbd331a43	-0.043726217
153	0x3c92cd0e	0.017920043
154	0xbcd2a1d3	-0.02571193
155	0xbd37c41e	-0.044864766
156	0xbda0b1b8	-0.07846397
157	0xbe41563c	-0.18880552
158	0xbd30eeae	-0.043196373
159	0xbd72c53a	-0.05927012
160	0x3c9fb6b3	0.019496297
161	0xbb6782e0	-0.003532581
162	0xbef93211	-0.4867101
163	0xbc4b78b9	-0.012418919
164	0xbc712ca1	-0.014720113
165	0x3c4ddaf4	0.0125644095
166	0xbd21e1b3	-0.039521884
167	0x3f633b05	0.8876193
168	0xbcb8e4bd	-0.022570008
169	0x3cca05e9	0.024661021
170	0xbccacab7	-0.024754865
171	0x3bf76778	0.0075501762
172	0xbe01d23e	-0.12677857
173	0x3cb54921	0.022129597
174	0x3abaff0b	0.0014266683
175	0xbbd9e69a	-0.0066498043
176	0xbaa6bee1	-0.0012721681
177	0xbd2f9905	-0.04287054
178	0xbc997ecf	-0.018737225
179	0xbc9ed380	-0.01938796
180	0x3aaadc24	0.0013035578
181	0x3a3e069c	0.00072489097
182	0x3cbe22f9	0.023210036
183	0xbb95d608	-0.0045726337
184	0x3b29a348	0.0025884677
185	0xbc9fd754	-0.019511856
186	0x3d0458e9	0.032311354
187	0x3dc8ddf7	0.098079614
188	0xbc4604d4	-0.012086112
189	0xbb111cbc	-0.002214237
190	0xbcad41a4	-0.021149464
191	0xbd976b56	-0.073935196
192	0xbe9082f4	-0.2822491
193	0xbda257c3	-0.079268955
194	0xbbcc8a32	-0.00624206
195	0xbbd14bad	-0.006387195
196	0xbd9168ab	-0.07100042
197	0xbec771ec	-0.38954103
198	0xbdf0e442	-0.11762287
199	0xbbb68a23	-0.0055706664
200	0x3e1ac411	0.15113856
201	0xbdeb7c37	-0.114983015
202	0xbdd1438a	-0.1021796
203	0xbcc18972	-0.02362511
204	0xbd33b73a	-0.04387591
205	0x3dea63e4	0.11444834
206	0xbe560e5a	-0.20903912
207	0xbe0808db	-0.13284628
208	0x3b7a4952	0.0038190675
209	0x3b8fc96b	0.0043880246
210	0x3e0a3e02	0.13500217
211	0xbe933a0c	-0.28755224
212	0xbe3f362f	-0.18673013
213	0x3ded0923	0.11574008
214	0xbccb8501	-0.024843695
215	0x3ddfe8ec	0.10933098
216	0xbe50cdd0	-0.20391011
217	0xbdd245d2	-0.102672234
218	0xbb4543e8	-0.003010029
219	0xbc5f5424	-0.0136309005
220	0x3e010df0	0.12602973
221	0xbd7f1a2b	-0.062280815
222	0xbdda27bb	-0.10652109
223	0xbd67b290	-0.056566775
224	0xbd1e67ba	-0.03867314
225	0x3d58e2e5	0.05295076
226	0xba9cc49f	-0.0011960453
227	0xbd5c3cbb	-0.053768855
228	0xbc04dcdf	-0.0081093
229	0xbb0d89e1	-0.0021597075
230	0x3ba0a623	0.0049026175
231	0xbd6670cb	-0.05625991
232	0x3e9c6efe	0.3055343
233	0xbc9af790	-0.018916875
234	0x3ba90cc3	0.005158992
235	0xbd57b53d	-0.052663077
236	0xbd394dd6	-0.045240246
237	0x3f12e16a	0.57375205
238	0xbbc749c2	-0.0060817907
239	0xbb11113e	-0.0022135521
240	0x3b9c56b5	0.0047710785
241	0xbd1b061c	-0.037847623
242	0x3e899814	0.2687384
243	0xbcb57291	-0.022149356
244	0x3c0751fc	0.008259293
245	0x3d5ed6b5	0.05440398
246	0x3bdd2e42	0.006749899
247	0xbd0d368e	-0.034475856
248	0xbc89281b	-0.016742757
249	0x3b959249	0.0045645577
250	0x3e0f1e8d	0.13976498
251	0x3e0074af	0.12544511
252	0x3e39c0bb	0.18139927
253	0x3df852e9	0.12125189
254	0x3dda9003	0.10671999
255	0x3d149a46	0.03627994

1012 f4 [72]
0	0x3d644798	0.05573234
1	0xbdc248d1	-0.09486545
2	0x3e3a5305	0.18195732
3	0x3dad8f50	0.084746
4	0x3cbf52b4	0.023354866
5	0x3e5182a3	0.2045999
6	0x3da0e111	0.07855428
7	0x3cdffc44	0.02734197
8	0xbe507c11	-0.20359828
9	0x3e8f1b19	0.2795036
10	0xbe0aa5b5	-0.13539775
11	0x3d7d8d48	0.061902314
12	0x3e054428	0.13014281
13	0x3d46d330	0.048541248
14	0x3df11516	0.117716
15	0xbab76800	-0.0013992786
16	0x3e661e3c	0.22472471
17	0x3c8747d2	0.016513739
18	0xbe6650f3	-0.22491817
19	0x3d3fc6a4	0.046820298
20	0x3d9d9b0f	0.07695591
21	0xbc2bdb88	-0.010489352
22	0x3d1c0f82	0.038100727
23	0x3dd29287	0.10281854
24	0xbcef3a88	-0.029202715
25	0x3c98b780	0.018642187
26	0x3d081219	0.033220384
27	0xbda96a62	-0.08272244
28	0x3e2d6a9a	0.16935197
29	0x3d81ed2c	0.06344065
30	0xbb8639c8	-0.0040962435
31	0x3d5f622e	0.05453699
32	0x3cf270f6	0.02959488
33	0x3c3a8ce0	0.011386126
34	0x3df31b36	0.118704244
35	0x3e1061e8	0.14099848
36	0x3dedea86	0.116169974
37	0x3e51ff15	0.20507462
38	0x3e33de68	0.1756531
39	0x3bc823d3	0.006107786
40	0x3b401a72	0.0029312638
41	0x3d6893de	0.056781642
42	0x3daa8228	0.083256066
43	0x3e25c8cb	0.16189878
44	0x3d23b985	0.039971847
45	0x3d2fbc2c	0.042904064
46	0x3cfd0bca	0.03088941
47	0x3e4fbc01	0.20286562
48	0x3dcefa64	0.10106352
49	0x3d371a78	0.044702977
50	0x3da2b19d	0.07944033
51	0x3e548572	0.2075403
52	0x3d5c8118	0.05383405
53	0xbc799a69	-0.015234568
54	0xbe82aa22	-0.25520426
55	0x3e3983eb	0.18116729
56	0xbc88cc03	-0.016698843
57	0x3e06ca2a	0.13163057
58	0x3da130ed	0.0787066
59	0x3e2d760b	0.16939561
60	0xbd1e0cf1	-0.03858656
61	0x3d6563df	0.056003448
62	0x3dce9d38	0.10088581
63	0xbd03e698	-0.032202333
64	0x3d4c787a	0.049919583
65	0x3de06c8a	0.10958202
66	0x3dc7809a	0.09741326
67	0x3e5184bb	0.20460789
68	0x3c8567e4	0.01628489
69	0x3e2169c2	0.15763
70	0x3e37c3a0	0.17945719
71	0x3bfd6dbd	0.007734029

1014 f4 [72, 72, 1, 1]
0	0xbe0a986c	-0.13534707
1	0xbe1814e1	-0.14851715
2	0x3e6a064b	0.22853963
3	0x3e988306	0.29787463
4	0xbd944d88	-0.072413504
5	0x3da4eba5	0.08052758
6	0xbd26c139	-0.040711615
7	0x3ec3b4d9	0.38223913
8	0x3f1b64b5	0.6070054
9	0x3e90a0be	0.28247637
10	0x3e5d28a6	0.21597537
11	0x3e957e49	0.2919791
12	0xbe072a9b	-0.13199846
13	0xbe7209a7	-0.23636495
14	0xbee207fc	-0.44146717
15	0xbda91c7a	-0.082573846
16	0xbec1ef9d	-0.37878123
17	0xbe8ec8e4	-0.27887642
18	0xbd456f2d	-0.04820173
19	0xbe03f1d1	-0.12885214
20	0xbde0ca98	-0.10976142
21	0x3f27ab8e	0.65496147
22	0xbd8ec2d8	-0.06970757
23	0x3e4a72ed	0.19770403
24	0xbe75d57d	-0.2400722
25	0x3cb248ea	0.021763284
26	0x3d9ed3a5	0.07755212
27	0xbd2d88aa	-0.04236666
28	0xbe2b7723	-0.16744666
29	0xbc30877f	-0.010774492
30	0x3e9e6f59	0.30944327
31	0x3e4a1656	0.19735083
32	0xbd09821b	-0.033571344
33	0xbc839057	-0.016060038
34	0x3e0e1a05	0.13877113
35	0x3d8ed892	0.06974901
36	0xbea6264b	-0.3245109
37	0xbeb3534e	-0.35024494
38	0x3d8eef6f	0.06979262
39	0xbdb5eb18	-0.08882731
40	0xbe0ea332	-0.13929442
41	0xbe15a2c4	-0.14612871
42	0xbe2f226d	-0.17102976
43	0x3e83b39e	0.25722975
44	0xbe5d9841	-0.21640112
45	0x3dbc003c	0.09179732
46	0x3eac076c	0.33599412
47	0xbe853177	-0.260143
48	0xbececec3	-0.40392122
49	0x3d8624c9	0.06549985
50	0x3eaa7ea4	0.33299744
51	0xbe7b9b94	-0.24571067
52	0xbe4b8e98	-0.19878614
53	0xbedb57db	-0.42840466
54	0xbe457620	-0.19283342
55	0x3e9d316a	0.30701762
56	0xbe85f62f	-0.26164386
57	0xbe1f2c08	-0.1554414
58	0xbe2f370b	-0.17110841
59	0xbdc20145	-0.094728984
60	0xbd2cd4db	-0.042195182
61	0x3dab973f	0.08378457
62	0xbe61661d	-0.2201161
63	0xbbe245f9	-0.006905314
64	0xbe153962	-0.14572671
65	0xbe7560a9	-0.23962654
66	0x3e6109a8	0.2197634
67	0x3ea614e9	0.32437828
68	0xbe92d1a8	-0.2867558
69	0x3e941c4c	0.2892784
70	0x3e867341	0.26259807
71	0xbdf2a459	-0.11847753
72	0xbebc58ac	-0.367864
73	0x3ec3c550	0.38236475
74	0xbd1fbb7f	-0.03899717
75	0xbe8fe888	-0.28107095
76	0x3ef53dce	0.47898716
77	0xbd8d686e	-0.06904684
78	0x3d9326c9	0.07185132
79	0xbf04ac54	-0.5182545
80	0xbf73acb1	-0.9518538
81	0xbf2f60ac	-0.68506885
82	0xbdd9bd52	-0.10631813
83	0xbf201c32	-0.6254302
84	0xbe935345	-0.28774467
85	0xbe3b4cea	-0.18291059
86	0x3e338034	0.17529374
87	0x3d44a22a	0.048006214
88	0x3d3b62ab	0.045748394
89	0x3e847c8c	0.25876272
90	0x3f171b69	0.590262
91	0xbefbf970	-0.49213743
92	0x3ea1a0f7	0.3156812
93	0xbf58e817	-0.8472914
94	0xbe83995b	-0.25702938
95	0xbd5306af	-0.051520046
96	0x3eb5f0ac	0.3553518
97	0x3eda2b18	0.42611003
98	0x3d966d9e	0.073451266
99	0xbef925c4	-0.48661625
100	0x3da179e4	0.07884577
101	0xbd791c59	-0.06081805
102	0x3d9dec6e	0.07711111
103	0x3ee12336	0.43972176
104	0x3e71e5cf	0.23622821
105	0xbdea536c	-0.11441693
106	0x3f58ae2c	0.84640765
107	0xbcfac925	-0.030613491
108	0xbc04b75a	-0.008100355
109	0x3e327f0f	0.17431282
110	0xbeabcf35	-0.33556524
111	0x3cff11eb	0.031136474
112	0x3dc32454	0.095284134
113	0x3d9d6256	0.07684772
114	0xbf083e1a	-0.5321976
115	0xbe1728f4	-0.14761716
116	0x3d2af0dd	0.04173361
117	0xbedce095	-0.43140092
118	0xbe8e98fc	-0.27851093
119	0xbce864a3	-0.0283683
120	0x3f316b88	0.69304705
121	0xbe467a0d	-0.19382496
122	0x3eb1adef	0.34703013
123	0xbe842c6e	-0.25815147
124	0xbd39b93e	-0.045342676
125	0x3c3acffa	0.011402125
126	0x3eb7cc2a	0.35897952
127	0xbe29c543	-0.16579156
128	0x3ed4b3e0	0.41543484
129	0x3f51ae73	0.81906813
130	0x3c6da92b	0.014505665
131	0xbf3a9f51	-0.7289935
132	0x3e862260	0.261981
133	0x3d8d8e69	0.06911928
134	0x3f36d451	0.7141772
135	0x3eb6da98	0.3571365
136	0x3e4543cd	0.19264145
137	0x3dc26b08	0.09493071
138	0xbd8a8b3f	-0.0676484
139	0xbe8d4c0e	-0.27597088
140	0xbf280126	-0.6562675
141	0x3f00aa25	0.5025962
142	0xbdf2539c	-0.118323535
143	0xbed76986	-0.42072695
144	0x3e373743	0.17892174
145	0xbd42166f	-0.047384676
146	0x3e0d8cdd	0.13823266
147	0x3e8123e6	0.252227
148	0xbd291aa5	-0.041285176
149	0xbe77339e	-0.24140784
150	0xbd853703	-0.06504633
151	0xbec32cd2	-0.38120133
152	0xbc9d904b	-0.019233843
153	0xbc9a0f75	-0.018806199
154	0xbe45747e	-0.1928272
155	0xbe570181	-0.20996667
156	0x3e69bdbe	0.22826287
157	0x3e8b309f	0.27185532
158	0x3c3f51c5	0.01167721
159	0xbcfdd83b	-0.030986896
160	0x3e7ef921	0.24899723
161	0xbb02ed2c	-0.0019977791
162	0x3c23a31e	0.009987621
163	0xbd0b6c71	-0.034038965
164	0xbdf844cb	-0.12122496
165	0x3e20596f	0.15659116
166	0x3e4eeceb	0.20207565
167	0xbd9e8a7c	-0.077412575
168	0xbc004c6e	-0.007830722
169	0xbf227f42	-0.6347543
170	0xbe164b65	-0.14677198
171	0x3cd986ab	0.026553473
172	0xbe0f88ba	-0.14017001
173	0xbdc340d0	-0.095338464
174	0x3e36ecfb	0.17863838
175	0x3d88f639	0.06687588
176	0xbe05480b	-0.13015763
177	0xbdda4be1	-0.10659004
178	0xbdc28bd1	-0.09499324
179	0x3c8ff9ba	0.017575134
180	0xbf16852e	-0.58796966
181	0x3ebfb943	0.3744603
182	0xbe331b40	-0.17490864
183	0xbdac926a	-0.08426364
184	0xbd83fa96	-0.0644428
185	0xbef3f9fa	-0.47651654
186	0x3d44fd92	0.048093386
187	0xbd6dba25	-0.05803885
188	0x3eaeba17	0.3412635
189	0xbd8b34da	-0.0679719
190	0xbdb77b7a	-0.08959098
191	0x3e3b4d1e	0.18291137
192	0x3e11b656	0.14229712
193	0xbdd5e3ce	-0.10443841
194	0xbea5320c	-0.32264745
195	0x3ddbae34	0.10726586
196	0x3cf3b029	0.029747086
197	0xbe110300	-0.141613
198	0xbe1c4720	-0.15261507
199	0xbdcdfad2	-0.10057606
200	0x3dcd31dc	0.100192755
201	0xbe632d6d	-0.22185297
202	0x3e13ac3e	0.14421174
203	0xbc5b3d08	-0.01338125
204	0xbe6b1072	-0.22955492
205	0xbd6a8f56	-0.057265602
206	0x3ebace7e	0.36485666
207	0xbebe727a	-0.37196714
208	0x3ec4aa5a	0.38411218
209	0xbd5aacbe	-0.053387396
210	0x3e1854d5	0.14876111
211	0x3d34589d	0.04402982
212	0xbcde39d9	-0.027127193
213	0xbe74c23a	-0.23902217
214	0x3ee2c328	0.44289517
215	0xbd7ededf	-0.062224265
216	0xbd180820	-0.037117124
217	0xbd64b9ff	-0.055841442
218	0x3ccb3326	0.024804663
219	0xbe017f8e	-0.12646315
220	0x3d17dec2	0.037077673
221	0x3dc4391d	0.09581206
222	0x3d960779	0.07325644
223	0xbe3ec7b0	-0.18630862
224	0xbc37682b	-0.011194269
225	0x3da36ee8	0.07980138
226	0x3c13ebca	0.009028384
227	0x3def624a	0.11688669
228	0x3d201f3b	0.039092284
229	0xbd1a886d	-0.037727762
230	0xbcf53e0e	-0.029936817
231	0x3e2ac0dc	0.16675133
232	0x3cdf8267	0.02728386
233	0x3dbaac04	0.091148406
234	0xbde21757	-0.11039608
235	0xbededa2c	-0.43525827
236	0x3d2eb06d	0.04264872
237	0x3d3449b5	0.044015605
238	0x3d9b54c1	0.07584525
239	0x3ce74fb2	0.028236244
240	0x3dea8399	0.114508815
241	0xbe1ce224	-0.15320641
242	0x3d914af0	0.07094371
243	0x3e155601	0.14583589
244	0x3e01e2c8	0.12684166
245	0xbde24a52	-0.11049332
246	0x3e064430	0.13111949
247	0xbdbcfbe3	-0.09227731
248	0xbd1cb929	-0.03826252
249	0xbdaf36a9	-0.085553475
250	0x3ed52834	0.41632235
251	0x3e7be72c	0.24599904
252	0x3d56f036	0.052475177
253	0x3dc74174	0.09729281
254	0x3e442f2c	0.1915862
255	0x3e02cfb8	0.12774551

1015 f4 [72]
0	0x3decbb49	0.11559159
1	0x3e83f0c9	0.25769642
2	0x3dd1de05	0.10247425
3	0xbe319f69	-0.17345966
4	0xbeb34a48	-0.3501761
5	0xbe788705	-0.24270256
6	0xbf01fd99	-0.50777584
7	0xbca48436	-0.020082574
8	0xbd5d5b5e	-0.054042213
9	0x3db01801	0.085983284
10	0x3ecbdc3c	0.39816463
11	0x3e514724	0.20437294
12	0x3e43e8fb	0.19131844
13	0x3e807989	0.25092724
14	0xbe4b98f8	-0.19882572
15	0x3e75af22	0.23992589
16	0x3e8226d2	0.25420243
17	0xbdc541ea	-0.09631713
18	0xbed38672	-0.4131351
19	0xbdc32ebf	-0.095304005
20	0x3ce83d21	0.028349461
21	0xbe22c732	-0.158963
22	0xbe655ec8	-0.22399437
23	0xbe3592e2	-0.17731813
24	0x3ea586ff	0.32329556
25	0x3db36769	0.08759958
26	0x3e8a1a9a	0.2697342
27	0xbe9614a6	-0.29312629
28	0xbebc1298	-0.36732936
29	0x3df0afc8	0.117522776
30	0xbe2d0f5e	-0.16900393
31	0x3e0c00a6	0.13672122
32	0x3ede19d1	0.4337907
33	0xbd22dbf5	-0.03976055
34	0xbe5d768a	-0.2162725
35	0xbe239b56	-0.15977225
36	0x3e928e30	0.28624105
37	0xbe0e3426	-0.1388708
38	0xbe3ac3e1	-0.18238784
39	0x3e6373a7	0.22212087
40	0xbe45a9dc	-0.19303077
41	0x3dcb6dca	0.0993305
42	0xbdc9dac7	-0.098561816
43	0x3ed44d17	0.41465065
44	0xbea03574	-0.31290781
45	0x3c6cc4e4	0.014451239
46	0x3ec3ded1	0.38255933
47	0xbdd505b3	-0.10401478
48	0x3c989a1e	0.018628176
49	0xbe0b8fda	-0.13629094
50	0xbd513257	-0.0510734
51	0xbe93291e	-0.28742307
52	0xbd7925bc	-0.060827002
53	0x3f1ab291	0.6042872
54	0xbdbefa4f	-0.09325086
55	0x3e23cc62	0.15995935
56	0x3eb93af8	0.36177802
57	0x3deb6c3e	0.11495255
58	0x3d69fc22	0.05712522
59	0xbdabc9f9	-0.083881326
60	0x3c84733a	0.016168226
61	0xbdc52bfd	-0.09627531
62	0x3eba6511	0.36405233
63	0xbe9c7711	-0.3055959
64	0x3d6c4b44	0.057688966
65	0x3de82c20	0.11336541
66	0xbe08ab28	-0.13346541
67	0x3eec92d8	0.46205783
68	0xbd5ece46	-0.054395936
69	0x3e784a8f	0.24247192
70	0x3e3ecc00	0.18632507
71	0xbe859fbd	-0.26098433

1016 f4 [4]
0	0x3f800000	1.0
1	0x3f800000	1.0
2	0x40000000	2.0
3	0x40000000	2.0
